…
(class) C:\Users\wlsgh\class\project2>C:/Users/wlsgh/anaconda3/envs/class/python.exe c:/Users/wlsgh/class/project2/MNIST_classifier.py
2024-06-16 07:03:43.859266: I tensorflow/core/platform/cpu_feature_guard.cc:182] This TensorFlow binary is optimized to use available CPU instructions in performance-critical operations.
To enable the following instructions: SSE SSE2 SSE3 SSE4.1 SSE4.2 AVX AVX2 FMA, in other operations, rebuild TensorFlow with the appropriate compiler flags.Model: "sequential"
_________________________________________________________________
 Layer (type)                Output Shape              Param #
=================================================================
 conv2d (Conv2D)             (None, 24, 24, 32)        832

 max_pooling2d (MaxPooling2  (None, 12, 12, 32)        0
 D)

 dropout (Dropout)           (None, 12, 12, 32)        0

 conv2d_1 (Conv2D)           (None, 12, 12, 64)        18496

 max_pooling2d_1 (MaxPoolin  (None, 6, 6, 64)          0
 g2D)

 dropout_1 (Dropout)         (None, 6, 6, 64)          0

 conv2d_2 (Conv2D)           (None, 6, 6, 128)         73856

 max_pooling2d_2 (MaxPoolin  (None, 3, 3, 128)         0
 g2D)

 dropout_2 (Dropout)         (None, 3, 3, 128)         0

 conv2d_3 (Conv2D)           (None, 3, 3, 256)         295168

 max_pooling2d_3 (MaxPoolin  (None, 2, 2, 256)         0
 g2D)

 dropout_3 (Dropout)         (None, 2, 2, 256)         0

 flatten (Flatten)           (None, 1024)              0

 dense (Dense)               (None, 512)               524800

 dropout_4 (Dropout)         (None, 512)               0

 dense_1 (Dense)             (None, 10)                5130

=================================================================
Total params: 918282 (3.50 MB)
Trainable params: 918282 (3.50 MB)
Non-trainable params: 0 (0.00 Byte)
_________________________________________________________________
Epoch 1/30
320/320 [==============================] - 46s 140ms/step - loss: 1.4007 - accuracy: 0.5040 - val_loss: 0.3156 - val_accuracy: 0.8989
Epoch 2/30
320/320 [==============================] - 47s 145ms/step - loss: 0.5334 - accuracy: 0.8221 - val_loss: 0.1737 - val_accuracy: 0.9451
…
